# Inception Network (GoogLeNet variant) Batch Normalization
name: "GoogleNet_BN_DATA"
### Training Set
input: "data"
input_shape {
  dim: 1
  dim: 3
  dim: 224
  dim: 224
}

input: "im_info"
input_shape {
  dim: 1
  dim: 3
}

layer {
  bottom: "data"
  top: "conv1/7x7_s2"
  name: "conv1/7x7_s2"
  type: "Convolution"
  param {
    lr_mult: 1
    decay_mult: 1
  }
  convolution_param {
    num_output: 64
    pad: 3
    kernel_size: 7
    stride: 2
    weight_filler {
      type: "xavier"
    }
    bias_term: false
  }
}
## BN_DATA
layer {
  bottom: "conv1/7x7_s2"
  name: "conv1/7x7_s2/bn_new"
  top: "conv1/7x7_s2/bn"
  type: "BatchNorm"
  param {
    lr_mult: 0
    decay_mult: 0
  }
  param {
    lr_mult: 0
    decay_mult: 0
  }
  param {
    lr_mult: 0
    decay_mult: 0
  }
  batch_norm_param {
   moving_average_fraction: 0.99
   eps: 0.001
  }
}
layer {
  name: "conv1/7x7_s2/scale"
  type: "Scale"
  bottom: "conv1/7x7_s2/bn"
  top: "conv1/7x7_s2/bn"
  param {
    lr_mult: 1.0
    decay_mult: 0.0
  }
  param {
    lr_mult: 1.0
    decay_mult: 0.0
  }
  scale_param {
    filler {
      type: "constant"
      value: 1.0
    }
    bias_term: true
    bias_filler {
      type: "constant"
      value: 0.0
    }
  }
}

layer {
  bottom: "conv1/7x7_s2/bn"
  top: "conv1/7x7_s2/bn"
  name: "conv1/relu_7x7"
  type: "ReLU"
}
layer {
  bottom: "conv1/7x7_s2/bn"
  top: "pool1/3x3_s2"
  name: "pool1/3x3_s2"
  type: "Pooling"
  pooling_param {
    pool: MAX
    kernel_size: 3
    stride: 2
  }
}
layer {
  bottom: "pool1/3x3_s2"
  top: "conv2/3x3_reduce"
  name: "conv2/3x3_reduce"
  type: "Convolution"
  param {
    lr_mult: 1
    decay_mult: 1
  }
  convolution_param {
    num_output: 64
    kernel_size: 1
    weight_filler {
      type: "xavier"
    }
    bias_term: false
  }
}
## BN_DATA
layer {
  bottom: "conv2/3x3_reduce"
  name: "conv2/3x3_reduce/bn_new"
  top: "conv2/3x3_reduce/bn"
  type: "BatchNorm"
  param {
    lr_mult: 0
    decay_mult: 0
  }
  param {
    lr_mult: 0
    decay_mult: 0
  }
  batch_norm_param {
    
    moving_average_fraction: 0.99
    eps: 0.001
  }
}
layer {
  name: "conv2/3x3_reduce/scale"
  type: "Scale"
  bottom: "conv2/3x3_reduce/bn"
  top: "conv2/3x3_reduce/bn"
  param {
    lr_mult: 1.0
    decay_mult: 0.0
  }
  param {
    lr_mult: 1.0
    decay_mult: 0.0
  }
  scale_param {
    filler {
      type: "constant"
      value: 1.0
    }
    bias_term: true
    bias_filler {
      type: "constant"
      value: 0.0
    }
  }
}
layer {
  bottom: "conv2/3x3_reduce/bn"
  top: "conv2/3x3_reduce/bn"
  name: "conv2/relu_3x3_reduce"
  type: "ReLU"
}
layer {
  bottom: "conv2/3x3_reduce/bn"
  top: "conv2/3x3"
  name: "conv2/3x3"
  type: "Convolution"
  param {
    lr_mult: 1
    decay_mult: 1
  }
  convolution_param {
    num_output: 192
    pad: 1
    kernel_size: 3
    weight_filler {
      type: "xavier"
    }
    bias_term: false
  }
}
## BN_DATA
layer {
  bottom: "conv2/3x3"
  name: "conv2/3x3/bn_new"
  top: "conv2/3x3/bn"
  type: "BatchNorm"
  param {
    lr_mult: 0
    decay_mult: 0
  }
  param {
    lr_mult: 0
    decay_mult: 0
  }
  batch_norm_param {
    
    moving_average_fraction: 0.99
    eps: 0.001
  }
}
layer {
  name: "conv2/3x3/scale"
  type: "Scale"
  bottom: "conv2/3x3/bn"
  top: "conv2/3x3/bn"
  param {
    lr_mult: 1.0
    decay_mult: 0.0
  }
  param {
    lr_mult: 1.0
    decay_mult: 0.0
  }
  scale_param {
    filler {
      type: "constant"
      value: 1.0
    }
    bias_term: true
    bias_filler {
      type: "constant"
      value: 0.0
    }
  }
}
layer {
  bottom: "conv2/3x3/bn"
  top: "conv2/3x3/bn"
  name: "conv2/relu_3x3"
  type: "ReLU"
}
layer {
  bottom: "conv2/3x3/bn"
  top: "pool2/3x3_s2"
  name: "pool2/3x3_s2"
  type: "Pooling"
  pooling_param {
    pool: MAX
    kernel_size: 3
    stride: 2
  }
}
layer {
  bottom: "pool2/3x3_s2"
  top: "inception_3a/1x1"
  name: "inception_3a/1x1"
  type: "Convolution"
  param {
    lr_mult: 1
    decay_mult: 1
  }
  convolution_param {
    num_output: 64
    kernel_size: 1
    weight_filler {
      type: "xavier"
    }
    bias_term: false
  }
}
## BN_DATA
layer {
  bottom: "inception_3a/1x1"
  name: "inception_3a/1x1/bn_new"
  top: "inception_3a/1x1/bn"
  type: "BatchNorm"
  param {
    lr_mult: 0
    decay_mult: 0
  }
  param {
    lr_mult: 0
    decay_mult: 0
  }
  batch_norm_param {
    
    moving_average_fraction: 0.99
    eps: 0.01
  }
}
layer {
  name: "inception_3a/1x1/scale"
  type: "Scale"
  bottom: "inception_3a/1x1/bn"
  top: "inception_3a/1x1/bn"
  param {
    lr_mult: 1.0
    decay_mult: 0.0
  }
  param {
    lr_mult: 1.0
    decay_mult: 0.0
  }
  scale_param {
    filler {
      type: "constant"
      value: 1.0
    }
    bias_term: true
    bias_filler {
      type: "constant"
      value: 0.0
    }
  }
}
layer {
  bottom: "inception_3a/1x1/bn"
  top: "inception_3a/1x1/bn"
  name: "inception_3a/relu_1x1"
  type: "ReLU"
}
layer {
  bottom: "pool2/3x3_s2"
  top: "inception_3a/3x3_reduce"
  name: "inception_3a/3x3_reduce"
  type: "Convolution"
  param {
    lr_mult: 1
    decay_mult: 1
  }
  convolution_param {
    #num_output: 96
    num_output: 64
    kernel_size: 1
    weight_filler {
      type: "xavier"
    }
    bias_term: false
  }
}
## BN_DATA
layer {
  bottom: "inception_3a/3x3_reduce"
  name: "inception_3a/3x3_reduce/bn_new"
  top: "inception_3a/3x3_reduce/bn"
  type: "BatchNorm"
  param {
    lr_mult: 0
    decay_mult: 0
  }
  param {
    lr_mult: 0
    decay_mult: 0
  }
  batch_norm_param {
    
  moving_average_fraction: 0.99
  eps: 0.01
  }
}
layer {
  name: "inception_3a/3x3_reduce/scale"
  type: "Scale"
  bottom: "inception_3a/3x3_reduce/bn"
  top: "inception_3a/3x3_reduce/bn"
  param {
    lr_mult: 1.0
    decay_mult: 0.0
  }
  param {
    lr_mult: 1.0
    decay_mult: 0.0
  }
  scale_param {
    filler {
      type: "constant"
      value: 1.0
    }
    bias_term: true
    bias_filler {
      type: "constant"
      value: 0.0
    }
  }
}
layer {
  bottom: "inception_3a/3x3_reduce/bn"
  top: "inception_3a/3x3_reduce/bn"
  name: "inception_3a/relu_3x3_reduce"
  type: "ReLU"
}
layer {
  bottom: "inception_3a/3x3_reduce/bn"
  top: "inception_3a/3x3"
  name: "inception_3a/3x3"
  type: "Convolution"
  param {
    lr_mult: 1
    decay_mult: 1
  }
  convolution_param {
    #num_output: 128
    num_output: 64
    pad: 1
    kernel_size: 3
    weight_filler {
      type: "xavier"
    }
    bias_term: false
  }
}
## BN_DATA
layer {
  bottom: "inception_3a/3x3"
  name: "inception_3a/3x3/bn_new"
  top: "inception_3a/3x3/bn"
  type: "BatchNorm"
  param {
    lr_mult: 0
    decay_mult: 0
  }
  param {
    lr_mult: 0
    decay_mult: 0
  }
  batch_norm_param {
    
    moving_average_fraction: 0.99
    eps: 0.01
  }
}
layer {
  name: "inception_3a/3x3/scale"
  type: "Scale"
  bottom: "inception_3a/3x3/bn"
  top: "inception_3a/3x3/bn"
  param {
    lr_mult: 1.0
    decay_mult: 0.0
  }
  param {
    lr_mult: 1.0
    decay_mult: 0.0
  }
  scale_param {
    filler {
      type: "constant"
      value: 1.0
    }
    bias_term: true
    bias_filler {
      type: "constant"
      value: 0.0
    }
  }
}
layer {
  bottom: "inception_3a/3x3/bn"
  top: "inception_3a/3x3/bn"
  name: "inception_3a/relu_3x3"
  type: "ReLU"
}
layer {
  bottom: "pool2/3x3_s2"
  top: "inception_3a/double3x3_reduce"
  name: "inception_3a/double3x3_reduce"
  type: "Convolution"
  param {
    lr_mult: 1
    decay_mult: 1
  }
  convolution_param {
    #num_output: 16
    num_output: 64
    kernel_size: 1
    weight_filler {
      type: "xavier"
    }
    bias_term: false
  }
}
## BN_DATA
layer {
  bottom: "inception_3a/double3x3_reduce"
  name: "inception_3a/double3x3_reduce/bn_new"
  top: "inception_3a/double3x3_reduce/bn"
  type: "BatchNorm"
  param {
    lr_mult: 0
    decay_mult: 0
  }
  param {
    lr_mult: 0
    decay_mult: 0
  }
  batch_norm_param {
    
    moving_average_fraction: 0.99
    eps: 0.001
  }
}
layer {
  name: "inception_3a/double3x3_reduce/scale"
  type: "Scale"
  bottom: "inception_3a/double3x3_reduce/bn"
  top: "inception_3a/double3x3_reduce/bn"
  param {
    lr_mult: 1.0
    decay_mult: 0.0
  }
  param {
    lr_mult: 1.0
    decay_mult: 0.0
  }
  scale_param {
    filler {
      type: "constant"
      value: 1.0
    }
    bias_term: true
    bias_filler {
      type: "constant"
      value: 0.0
    }
  }
}
layer {
  bottom: "inception_3a/double3x3_reduce/bn"
  top: "inception_3a/double3x3_reduce/bn"
  name: "inception_3a/relu_double3x3_reduce"
  type: "ReLU"
}
layer {
  bottom: "inception_3a/double3x3_reduce/bn"
  top: "inception_3a/double3x3a"
  name: "inception_3a/double3x3a"
  type: "Convolution"
  param {
    lr_mult: 1
    decay_mult: 1
  }
  convolution_param {
    #num_output: 32
    num_output: 96
    pad: 1
    kernel_size: 3
    weight_filler {
      type: "xavier"
    }
    bias_term: false
  }
}
## BN_DATA
layer {
  bottom: "inception_3a/double3x3a"
  name: "inception_3a/double3x3a/bn_new"
  top: "inception_3a/double3x3a/bn"
  type: "BatchNorm"
  param {
    lr_mult: 0
    decay_mult: 0
  }
  param {
    lr_mult: 0
    decay_mult: 0
  }
  batch_norm_param {
    
    moving_average_fraction: 0.99
    eps: 0.001
  }
}
layer {
  name: "inception_3a/double3x3a/scale"
  type: "Scale"
  bottom: "inception_3a/double3x3a/bn"
  top: "inception_3a/double3x3a/bn"
  param {
    lr_mult: 1.0
    decay_mult: 0.0
  }
  param {
    lr_mult: 1.0
    decay_mult: 0.0
  }
  scale_param {
    filler {
      type: "constant"
      value: 1.0
    }
    bias_term: true
    bias_filler {
      type: "constant"
      value: 0.0
    }
  }
}
layer {
  bottom: "inception_3a/double3x3a/bn"
  top: "inception_3a/double3x3a/bn"
  name: "inception_3a/relu_double3x3a"
  type: "ReLU"
}
layer {
  bottom: "inception_3a/double3x3a/bn"
  top: "inception_3a/double3x3b"
  name: "inception_3a/double3x3b"
  type: "Convolution"
  param {
    lr_mult: 1
    decay_mult: 1
  }
  convolution_param {
    #num_output: 32
    num_output: 96
    pad: 1
    kernel_size: 3
    weight_filler {
      type: "xavier"
    }
    bias_term: false
  }
}
## BN_DATA
layer {
  bottom: "inception_3a/double3x3b"
  name: "inception_3a/double3x3b/bn_new"
  top: "inception_3a/double3x3b/bn"
  type: "BatchNorm"
  param {
    lr_mult: 0
    decay_mult: 0
  }
  param {
    lr_mult: 0
    decay_mult: 0
  }
  batch_norm_param {
    moving_average_fraction: 0.99
    eps: 0.001
  }
}
layer {
  name: "inception_3a/double3x3b/bn_scale"
  type: "Scale"
  bottom: "inception_3a/double3x3b/bn"
  top: "inception_3a/double3x3b/bn"
  param {
    lr_mult: 1.0
    decay_mult: 0.0
  }
  param {
    lr_mult: 1.0
    decay_mult: 0.0
  }
  scale_param {
    filler {
      type: "constant"
      value: 1.0
    }
    bias_term: true
    bias_filler {
      type: "constant"
      value: 0.0
    }
  }
}
layer {
  bottom: "inception_3a/double3x3b/bn"
  top: "inception_3a/double3x3b/bn"
  name: "inception_3a/relu_double3x3b"
  type: "ReLU"
}
layer {
  bottom: "pool2/3x3_s2"
  top: "inception_3a/pool"
  name: "inception_3a/pool"
  type: "Pooling"
  pooling_param {
    #pool: MAX
    pool: AVE
    kernel_size: 3
    stride: 1
    pad: 1
  }
}
layer {
  bottom: "inception_3a/pool"
  top: "inception_3a/pool_proj"
  name: "inception_3a/pool_proj"
  type: "Convolution"
  param {
    lr_mult: 1
    decay_mult: 1
  }
  convolution_param {
    num_output: 32
    kernel_size: 1
    weight_filler {
      type: "xavier"
    }
    bias_term: false
  }
}
## BN_DATA
layer {
  bottom: "inception_3a/pool_proj"
  name: "inception_3a/pool_proj/bn_new"
  top: "inception_3a/pool_proj/bn"
  type: "BatchNorm"
  param {
    lr_mult: 0
    decay_mult: 0
  }
  param {
    lr_mult: 0
    decay_mult: 0
  }
  batch_norm_param {
    
    moving_average_fraction: 0.99
    eps: 0.001
  }
}
layer {
  name: "inception_3a/pool_proj/scale"
  type: "Scale"
  bottom: "inception_3a/pool_proj/bn"
  top: "inception_3a/pool_proj/bn"
  param {
    lr_mult: 1.0
    decay_mult: 0.0
  }
  param {
    lr_mult: 1.0
    decay_mult: 0.0
  }
  scale_param {
    filler {
      type: "constant"
      value: 1.0
    }
    bias_term: true
    bias_filler {
      type: "constant"
      value: 0.0
    }
  }
}
layer {
  bottom: "inception_3a/pool_proj/bn"
  top: "inception_3a/pool_proj/bn"
  name: "inception_3a/relu_pool_proj"
  type: "ReLU"
}
layer {
  bottom: "inception_3a/1x1/bn"
  bottom: "inception_3a/3x3/bn"
  bottom: "inception_3a/double3x3b/bn"
  bottom: "inception_3a/pool_proj/bn"
  top: "inception_3a/output"
  name: "inception_3a/output"
  type: "Concat"
}
layer {
  bottom: "inception_3a/output"
  top: "inception_3b/1x1"
  name: "inception_3b/1x1"
  type: "Convolution"
  param {
    lr_mult: 1
    decay_mult: 1
  }
  convolution_param {
    #num_output: 128
    num_output: 64
    kernel_size: 1
    weight_filler {
      type: "xavier"
    }
    bias_term: false
  }
}
## BN_DATA
layer {
  bottom: "inception_3b/1x1"
  name: "inception_3b/1x1/bn_new"
  top: "inception_3b/1x1/bn"
  type: "BatchNorm"
  param {
    lr_mult: 0
    decay_mult: 0
  }
  param {
    lr_mult: 0
    decay_mult: 0
  }
  batch_norm_param {
    
    moving_average_fraction: 0.99
    eps: 0.001
  }
}
layer {
  name: "inception_3b/1x1/scale"
  type: "Scale"
  bottom: "inception_3b/1x1/bn"
  top: "inception_3b/1x1/bn"
  param {
    lr_mult: 1.0
    decay_mult: 0.0
  }
  param {
    lr_mult: 1.0
    decay_mult: 0.0
  }
  scale_param {
    filler {
      type: "constant"
      value: 1.0
    }
    bias_term: true
    bias_filler {
      type: "constant"
      value: 0.0
    }
  }
}
layer {
  bottom: "inception_3b/1x1/bn"
  top: "inception_3b/1x1/bn"
  name: "inception_3b/relu_1x1"
  type: "ReLU"
}
layer {
  bottom: "inception_3a/output"
  top: "inception_3b/3x3_reduce"
  name: "inception_3b/3x3_reduce"
  type: "Convolution"
  param {
    lr_mult: 1
    decay_mult: 1
  }
  convolution_param {
    #num_output: 128
    num_output: 64
    kernel_size: 1
    weight_filler {
      type: "xavier"
    }
    bias_term: false
  }
}
## BN_DATA
layer {
  bottom: "inception_3b/3x3_reduce"
  name: "inception_3b/3x3_reduce/bn_new"
  top: "inception_3b/3x3_reduce/bn"
  type: "BatchNorm"
  param {
    lr_mult: 0
    decay_mult: 0
  }
  param {
    lr_mult: 0
    decay_mult: 0
  }
  batch_norm_param {
    
    moving_average_fraction: 0.99
    eps: 0.001
  }
}
layer {
  name: "inception_3b/3x3_reduce/bn_scale"
  type: "Scale"
  bottom: "inception_3b/3x3_reduce/bn"
  top: "inception_3b/3x3_reduce/bn"
  param {
    lr_mult: 1.0
    decay_mult: 0.0
  }
  param {
    lr_mult: 1.0
    decay_mult: 0.0
  }
  scale_param {
    filler {
      type: "constant"
      value: 1.0
    }
    bias_term: true
    bias_filler {
      type: "constant"
      value: 0.0
    }
  }
}
layer {
  bottom: "inception_3b/3x3_reduce/bn"
  top: "inception_3b/3x3_reduce/bn"
  name: "inception_3b/relu_3x3_reduce"
  type: "ReLU"
}
layer {
  bottom: "inception_3b/3x3_reduce/bn"
  top: "inception_3b/3x3"
  name: "inception_3b/3x3"
  type: "Convolution"
  param {
    lr_mult: 1
    decay_mult: 1
  }
  convolution_param {
    #num_output: 192
    num_output: 96
    pad: 1
    kernel_size: 3
    weight_filler {
      type: "xavier"
    }
    bias_term: false
  }
}
## BN_DATA
layer {
  bottom: "inception_3b/3x3"
  name: "inception_3b/3x3/bn_new"
  top: "inception_3b/3x3/bn"
  type: "BatchNorm"
  param {
    lr_mult: 0
    decay_mult: 0
  }
  param {
    lr_mult: 0
    decay_mult: 0
  }
  batch_norm_param {
    
    moving_average_fraction: 0.99
    eps: 0.001
  }
}
layer {
  name: "inception_3b/3x3/bn_scale"
  type: "Scale"
  bottom: "inception_3b/3x3/bn"
  top: "inception_3b/3x3/bn"
  param {
    lr_mult: 1.0
    decay_mult: 0.0
  }
  param {
    lr_mult: 1.0
    decay_mult: 0.0
  }
  scale_param {
    filler {
      type: "constant"
      value: 1.0
    }
    bias_term: true
    bias_filler {
      type: "constant"
      value: 0.0
    }
  }
}
layer {
  bottom: "inception_3b/3x3/bn"
  top: "inception_3b/3x3/bn"
  name: "inception_3b/relu_3x3"
  type: "ReLU"
}
layer {
  bottom: "inception_3a/output"
  top: "inception_3b/double3x3_reduce"
  name: "inception_3b/double3x3_reduce"
  type: "Convolution"
  param {
    lr_mult: 1
    decay_mult: 1
  }
  convolution_param {
    #num_output: 32
    num_output: 64
    kernel_size: 1
    weight_filler {
      type: "xavier"
    }
    bias_term: false
  }
}
## BN_DATA
layer {
  bottom: "inception_3b/double3x3_reduce"
  name: "inception_3b/double3x3_reduce/bn_new"
  top: "inception_3b/double3x3_reduce/bn"
  type: "BatchNorm"
  param {
    lr_mult: 0
    decay_mult: 0
  }
  param {
    lr_mult: 0
    decay_mult: 0
  }
  batch_norm_param {
    
    moving_average_fraction: 0.99
    eps: 0.001
  }
}
layer {
  name: "inception_3b/double3x3_reduce/bn_scale"
  type: "Scale"
  bottom: "inception_3b/double3x3_reduce/bn"
  top: "inception_3b/double3x3_reduce/bn"
  param {
    lr_mult: 1.0
    decay_mult: 0.0
  }
  param {
    lr_mult: 1.0
    decay_mult: 0.0
  }
  scale_param {
    filler {
      type: "constant"
      value: 1.0
    }
    bias_term: true
    bias_filler {
      type: "constant"
      value: 0.0
    }
  }
}
layer {
  bottom: "inception_3b/double3x3_reduce/bn"
  top: "inception_3b/double3x3_reduce/bn"
  name: "inception_3b/relu_double3x3_reduce"
  type: "ReLU"
}
layer {
  bottom: "inception_3b/double3x3_reduce/bn"
  top: "inception_3b/double3x3a"
  name: "inception_3b/double3x3a"
  type: "Convolution"
  param {
    lr_mult: 1
    decay_mult: 1
  }
  convolution_param {
    num_output: 96
    pad: 1
    kernel_size: 3
    weight_filler {
      type: "xavier"
    }
    bias_term: false
  }
}
## BN_DATA
layer {
  bottom: "inception_3b/double3x3a"
  name: "inception_3b/double3x3a/bn_new"
  top: "inception_3b/double3x3a/bn"
  type: "BatchNorm"
  param {
    lr_mult: 0
    decay_mult: 0
  }
  param {
    lr_mult: 0
    decay_mult: 0
  }
  batch_norm_param {
    
    moving_average_fraction: 0.99
    eps: 0.001
  }
}
layer {
  name: "inception_3b/double3x3a/bn_scale"
  type: "Scale"
  bottom: "inception_3b/double3x3a/bn"
  top: "inception_3b/double3x3a/bn"
  param {
    lr_mult: 1.0
    decay_mult: 0.0
  }
  param {
    lr_mult: 1.0
    decay_mult: 0.0
  }
  scale_param {
    filler {
      type: "constant"
      value: 1.0
    }
    bias_term: true
    bias_filler {
      type: "constant"
      value: 0.0
    }
  }
}
layer {
  bottom: "inception_3b/double3x3a/bn"
  top: "inception_3b/double3x3a/bn"
  name: "inception_3b/relu_double3x3a"
  type: "ReLU"
}
layer {
  bottom: "inception_3b/double3x3a/bn"
  top: "inception_3b/double3x3b"
  name: "inception_3b/double3x3b"
  type: "Convolution"
  param {
    lr_mult: 1
    decay_mult: 1
  }
  convolution_param {
    num_output: 96
    pad: 1
    kernel_size: 3
    weight_filler {
      type: "xavier"
    }
    bias_term: false
  }
}
## BN_DATA
layer {
  bottom: "inception_3b/double3x3b"
  name: "inception_3b/double3x3b/bn_new"
  top: "inception_3b/double3x3b/bn"
  type: "BatchNorm"
  param {
    lr_mult: 0
    decay_mult: 0
  }
  param {
    lr_mult: 0
    decay_mult: 0
  }
  batch_norm_param {
    
    moving_average_fraction: 0.99
    eps: 0.001
  }
}
layer {
  name: "inception_3b/double3x3b/bn_scale"
  type: "Scale"
  bottom: "inception_3b/double3x3b/bn"
  top: "inception_3b/double3x3b/bn"
  param {
    lr_mult: 1.0
    decay_mult: 0.0
  }
  param {
    lr_mult: 1.0
    decay_mult: 0.0
  }
  scale_param {
    filler {
      type: "constant"
      value: 1.0
    }
    bias_term: true
    bias_filler {
      type: "constant"
      value: 0.0
    }
  }
}
layer {
  bottom: "inception_3b/double3x3b/bn"
  top: "inception_3b/double3x3b/bn"
  name: "inception_3b/relu_double3x3b"
  type: "ReLU"
}
layer {
  bottom: "inception_3a/output"
  top: "inception_3b/pool"
  name: "inception_3b/pool"
  type: "Pooling"
  pooling_param {
    #pool: MAX
    pool: AVE
    kernel_size: 3
    stride: 1
    pad: 1
  }
}
layer {
  bottom: "inception_3b/pool"
  top: "inception_3b/pool_proj"
  name: "inception_3b/pool_proj"
  type: "Convolution"
  param {
    lr_mult: 1
    decay_mult: 1
  }
  convolution_param {
    num_output: 64
    kernel_size: 1
    weight_filler {
      type: "xavier"
    }
    bias_term: false
  }
}
## BN_DATA
layer {
  bottom: "inception_3b/pool_proj"
  name: "inception_3b/pool_proj/bn_new"
  top: "inception_3b/pool_proj/bn"
  type: "BatchNorm"
  param {
    lr_mult: 0
    decay_mult: 0
  }
  param {
    lr_mult: 0
    decay_mult: 0
  }
  batch_norm_param {
    
    moving_average_fraction: 0.99
    eps: 0.001
  }
}
layer {
  name: "inception_3b/pool_proj/bn_scale"
  type: "Scale"
  bottom: "inception_3b/pool_proj/bn"
  top: "inception_3b/pool_proj/bn"
  param {
    lr_mult: 1.0
    decay_mult: 0.0
  }
  param {
    lr_mult: 1.0
    decay_mult: 0.0
  }
  scale_param {
    filler {
      type: "constant"
      value: 1.0
    }
    bias_term: true
    bias_filler {
      type: "constant"
      value: 0.0
    }
  }
}
layer {
  bottom: "inception_3b/pool_proj/bn"
  top: "inception_3b/pool_proj/bn"
  name: "inception_3b/relu_pool_proj"
  type: "ReLU"
}
layer {
  bottom: "inception_3b/1x1/bn"
  bottom: "inception_3b/3x3/bn"
  bottom: "inception_3b/double3x3b/bn"
  bottom: "inception_3b/pool_proj/bn"
  top: "inception_3b/output"
  name: "inception_3b/output"
  type: "Concat"
}
layer {
  bottom: "inception_3b/output"
  top: "inception_3c/3x3_reduce"
  name: "inception_3c/3x3_reduce"
  type: "Convolution"
  param {
    lr_mult: 1
    decay_mult: 1
  }
  convolution_param {
    num_output: 128
    kernel_size: 1
    weight_filler {
      type: "xavier"
    }
    bias_term: false
  }
}
## BN_DATA
layer {
  bottom: "inception_3c/3x3_reduce"
  name: "inception_3c/3x3_reduce/bn_new"
  top: "inception_3c/3x3_reduce/bn"
  type: "BatchNorm"
  param {
    lr_mult: 0
    decay_mult: 0
  }
  param {
    lr_mult: 0
    decay_mult: 0
  }
  batch_norm_param {
    
    moving_average_fraction: 0.99
    eps: 0.001
  }
}
layer {
  name: "inception_3c/3x3_reduce/bn_scale"
  type: "Scale"
  bottom: "inception_3c/3x3_reduce/bn"
  top: "inception_3c/3x3_reduce/bn"
  param {
    lr_mult: 1.0
    decay_mult: 0.0
  }
  param {
    lr_mult: 1.0
    decay_mult: 0.0
  }
  scale_param {
    filler {
      type: "constant"
      value: 1.0
    }
    bias_term: true
    bias_filler {
      type: "constant"
      value: 0.0
    }
  }
}
layer {
  bottom: "inception_3c/3x3_reduce/bn"
  top: "inception_3c/3x3_reduce/bn"
  name: "inception_3c/relu_3x3_reduce"
  type: "ReLU"
}
layer {
  bottom: "inception_3c/3x3_reduce/bn"
  top: "inception_3c/3x3"
  name: "inception_3c/3x3"
  type: "Convolution"
  param {
    lr_mult: 1
    decay_mult: 1
  }
  convolution_param {
    num_output: 160
    pad: 1
    stride: 2
    kernel_size: 3
    weight_filler {
      type: "xavier"
    }
    bias_term: false
  }
}
## BN_DATA
layer {
  bottom: "inception_3c/3x3"
  name: "inception_3c/3x3/bn_new"
  top: "inception_3c/3x3/bn"
  type: "BatchNorm"
  param {
    lr_mult: 0
    decay_mult: 0
  }
  param {
    lr_mult: 0
    decay_mult: 0
  }
  batch_norm_param {
    
    moving_average_fraction: 0.99
    eps: 0.001
  }
}
layer {
  name: "inception_3c/3x3/bn_scale"
  type: "Scale"
  bottom: "inception_3c/3x3/bn"
  top: "inception_3c/3x3/bn"
  param {
    lr_mult: 1.0
    decay_mult: 0.0
  }
  param {
    lr_mult: 1.0
    decay_mult: 0.0
  }
  scale_param {
    filler {
      type: "constant"
      value: 1.0
    }
    bias_term: true
    bias_filler {
      type: "constant"
      value: 0.0
    }
  }
}
layer {
  bottom: "inception_3c/3x3/bn"
  top: "inception_3c/3x3/bn"
  name: "inception_3c/relu_3x3"
  type: "ReLU"
}
layer {
  bottom: "inception_3b/output"
  top: "inception_3c/double3x3_reduce"
  name: "inception_3c/double3x3_reduce"
  type: "Convolution"
  param {
    lr_mult: 1
    decay_mult: 1
  }
  convolution_param {
    num_output: 64
    kernel_size: 1
    weight_filler {
      type: "xavier"
    }
    bias_term: false
  }
}
## BN_DATA
layer {
  bottom: "inception_3c/double3x3_reduce"
  name: "inception_3c/double3x3_reduce/bn_new"
  top: "inception_3c/double3x3_reduce/bn"
  type: "BatchNorm"
  param {
    lr_mult: 0
    decay_mult: 0
  }
  param {
    lr_mult: 0
    decay_mult: 0
  }
  batch_norm_param {
    
    moving_average_fraction: 0.99
    eps: 0.001
  }
}
layer {
  name: "inception_3c/double3x3_reduce/bn_scale"
  type: "Scale"
  bottom: "inception_3c/double3x3_reduce/bn"
  top: "inception_3c/double3x3_reduce/bn"
  param {
    lr_mult: 1.0
    decay_mult: 0.0
  }
  param {
    lr_mult: 1.0
    decay_mult: 0.0
  }
  scale_param {
    filler {
      type: "constant"
      value: 1.0
    }
    bias_term: true
    bias_filler {
      type: "constant"
      value: 0.0
    }
  }
}
layer {
  bottom: "inception_3c/double3x3_reduce/bn"
  top: "inception_3c/double3x3_reduce/bn"
  name: "inception_3c/relu_double3x3_reduce"
  type: "ReLU"
}
layer {
  bottom: "inception_3c/double3x3_reduce/bn"
  top: "inception_3c/double3x3a"
  name: "inception_3c/double3x3a"
  type: "Convolution"
  param {
    lr_mult: 1
    decay_mult: 1
  }
  convolution_param {
    num_output: 96
    pad: 1
    kernel_size: 3
    weight_filler {
      type: "xavier"
    }
    bias_term: false
  }
}
## BN_DATA
layer {
  bottom: "inception_3c/double3x3a"
  name: "inception_3c/double3x3a/bn_new"
  top: "inception_3c/double3x3a/bn"
  type: "BatchNorm"
  param {
    lr_mult: 0
    decay_mult: 0
  }
  param {
    lr_mult: 0
    decay_mult: 0
  }
  batch_norm_param {
    
    moving_average_fraction: 0.99
    eps: 0.001
  }
}
layer {
  name: "inception_3c/double3x3a/bn_scale"
  type: "Scale"
  bottom: "inception_3c/double3x3a/bn"
  top: "inception_3c/double3x3a/bn"
  param {
    lr_mult: 1.0
    decay_mult: 0.0
  }
  param {
    lr_mult: 1.0
    decay_mult: 0.0
  }
  scale_param {
    filler {
      type: "constant"
      value: 1.0
    }
    bias_term: true
    bias_filler {
      type: "constant"
      value: 0.0
    }
  }
}
layer {
  bottom: "inception_3c/double3x3a/bn"
  top: "inception_3c/double3x3a/bn"
  name: "inception_3c/relu_double3x3a"
  type: "ReLU"
}
layer {
  bottom: "inception_3c/double3x3a/bn"
  top: "inception_3c/double3x3b"
  name: "inception_3c/double3x3b"
  type: "Convolution"
  param {
    lr_mult: 1
    decay_mult: 1
  }
  convolution_param {
    num_output: 96
    pad: 1
    stride: 2
    kernel_size: 3
    weight_filler {
      type: "xavier"
    }
    bias_term: false
  }
}
## BN_DATA
layer {
  bottom: "inception_3c/double3x3b"
  name: "inception_3c/double3x3b/bn_new"
  top: "inception_3c/double3x3b/bn"
  type: "BatchNorm"
  param {
    lr_mult: 0
    decay_mult: 0
  }
  param {
    lr_mult: 0
    decay_mult: 0
  }
  batch_norm_param {
    
    moving_average_fraction: 0.99
    eps: 0.001
  }
}
layer {
  name: "inception_3c/double3x3b/bn_scale"
  type: "Scale"
  bottom: "inception_3c/double3x3b/bn"
  top: "inception_3c/double3x3b/bn"
  param {
    lr_mult: 1.0
    decay_mult: 0.0
  }
  param {
    lr_mult: 1.0
    decay_mult: 0.0
  }
  scale_param {
    filler {
      type: "constant"
      value: 1.0
    }
    bias_term: true
    bias_filler {
      type: "constant"
      value: 0.0
    }
  }
}
layer {
  bottom: "inception_3c/double3x3b/bn"
  top: "inception_3c/double3x3b/bn"
  name: "inception_3c/relu_double3x3b"
  type: "ReLU"
}
layer {
  bottom: "inception_3b/output"
  top: "inception_3c/pool/3x3_s2"
  name: "inception_3c/pool/3x3_s2"
  type: "Pooling"
  pooling_param {
    pool: MAX
    kernel_size: 3
    stride: 2
    pad: 1
  }
}
layer {
  bottom: "inception_3c/3x3/bn"
  bottom: "inception_3c/double3x3b/bn"
  bottom: "inception_3c/pool/3x3_s2"
  top: "inception_3c/output"
  name: "inception_3c/output"
  type: "Concat"
}
layer {
  bottom: "inception_3c/output"
  top: "inception_4a/1x1"
  name: "inception_4a/1x1"
  type: "Convolution"
  param {
    lr_mult: 1
    decay_mult: 1
  }
  convolution_param {
    #num_output: 192
    num_output: 224
    kernel_size: 1
    weight_filler {
      type: "xavier"
    }
    bias_term: false
  }
}
## BN_DATA
layer {
  bottom: "inception_4a/1x1"
  name: "inception_4a/1x1/bn_new"
  top: "inception_4a/1x1/bn"
  type: "BatchNorm"
  param {
    lr_mult: 0
    decay_mult: 0
  }
  param {
    lr_mult: 0
    decay_mult: 0
  }
  batch_norm_param {
    
    moving_average_fraction: 0.99
    eps: 0.001
  }
}
layer {
  name: "inception_4a/1x1/bn_scale"
  type: "Scale"
  bottom: "inception_4a/1x1/bn"
  top: "inception_4a/1x1/bn"
  param {
    lr_mult: 1.0
    decay_mult: 0.0
  }
  param {
    lr_mult: 1.0
    decay_mult: 0.0
  }
  scale_param {
    filler {
      type: "constant"
      value: 1.0
    }
    bias_term: true
    bias_filler {
      type: "constant"
      value: 0.0
    }
  }
}
layer {
  bottom: "inception_4a/1x1/bn"
  top: "inception_4a/1x1/bn"
  name: "inception_4a/relu_1x1"
  type: "ReLU"
}
layer {
  bottom: "inception_3c/output"
  top: "inception_4a/3x3_reduce"
  name: "inception_4a/3x3_reduce"
  type: "Convolution"
  param {
    lr_mult: 1
    decay_mult: 1
  }
  convolution_param {
    #num_output: 96
    num_output: 64
    kernel_size: 1
    weight_filler {
      type: "xavier"
    }
    bias_term: false
  }
}
## BN_DATA
layer {
  bottom: "inception_4a/3x3_reduce"
  name: "inception_4a/3x3_reduce/bn_new"
  top: "inception_4a/3x3_reduce/bn"
  type: "BatchNorm"
  param {
    lr_mult: 0
    decay_mult: 0
  }
  param {
    lr_mult: 0
    decay_mult: 0
  }
  batch_norm_param {
    
    moving_average_fraction: 0.99
    eps: 0.001
  }
}
layer {
  name: "inception_4a/3x3_reduce/bn_scale"
  type: "Scale"
  bottom: "inception_4a/3x3_reduce/bn"
  top: "inception_4a/3x3_reduce/bn"
  param {
    lr_mult: 1.0
    decay_mult: 0.0
  }
  param {
    lr_mult: 1.0
    decay_mult: 0.0
  }
  scale_param {
    filler {
      type: "constant"
      value: 1.0
    }
    bias_term: true
    bias_filler {
      type: "constant"
      value: 0.0
    }
  }
}
layer {
  bottom: "inception_4a/3x3_reduce/bn"
  top: "inception_4a/3x3_reduce/bn"
  name: "inception_4a/relu_3x3_reduce"
  type: "ReLU"
}
layer {
  bottom: "inception_4a/3x3_reduce/bn"
  top: "inception_4a/3x3"
  name: "inception_4a/3x3"
  type: "Convolution"
  param {
    lr_mult: 1
    decay_mult: 1
  }
  convolution_param {
    #num_output: 208
    num_output: 96
    pad: 1
    kernel_size: 3
    weight_filler {
      type: "xavier"
    }
    bias_term: false
  }
}
## BN_DATA
layer {
  bottom: "inception_4a/3x3"
  name: "inception_4a/3x3/bn_new"
  top: "inception_4a/3x3/bn"
  type: "BatchNorm"
  param {
    lr_mult: 0
    decay_mult: 0
  }
  param {
    lr_mult: 0
    decay_mult: 0
  }
  batch_norm_param {
    
    moving_average_fraction: 0.99
    eps: 0.001
  }
}
layer {
  name: "inception_4a/3x3/bn_scale"
  type: "Scale"
  bottom: "inception_4a/3x3/bn"
  top: "inception_4a/3x3/bn"
  param {
    lr_mult: 1.0
    decay_mult: 0.0
  }
  param {
    lr_mult: 1.0
    decay_mult: 0.0
  }
  scale_param {
    filler {
      type: "constant"
      value: 1.0
    }
    bias_term: true
    bias_filler {
      type: "constant"
      value: 0.0
    }
  }
}
layer {
  bottom: "inception_4a/3x3/bn"
  top: "inception_4a/3x3/bn"
  name: "inception_4a/relu_3x3"
  type: "ReLU"
}
layer {
  bottom: "inception_3c/output"
  top: "inception_4a/double3x3_reduce"
  name: "inception_4a/double3x3_reduce"
  type: "Convolution"
  param {
    lr_mult: 1
    decay_mult: 1
  }
  convolution_param {
    #num_output: 16
    num_output: 96
    kernel_size: 1
    weight_filler {
      type: "xavier"
    }
    bias_term: false
  }
}
## BN_DATA
layer {
  bottom: "inception_4a/double3x3_reduce"
  name: "inception_4a/double3x3_reduce/bn_new"
  top: "inception_4a/double3x3_reduce/bn"
  type: "BatchNorm"
  param {
    lr_mult: 0
    decay_mult: 0
  }
  param {
    lr_mult: 0
    decay_mult: 0
  }
  batch_norm_param {
    
    moving_average_fraction: 0.99
    eps: 0.001
  }
}
layer {
  name: "inception_4a/double3x3_reduce/bn_scale"
  type: "Scale"
  bottom: "inception_4a/double3x3_reduce/bn"
  top: "inception_4a/double3x3_reduce/bn"
  param {
    lr_mult: 1.0
    decay_mult: 0.0
  }
  param {
    lr_mult: 1.0
    decay_mult: 0.0
  }
  scale_param {
    filler {
      type: "constant"
      value: 1.0
    }
    bias_term: true
    bias_filler {
      type: "constant"
      value: 0.0
    }
  }
}
layer {
  bottom: "inception_4a/double3x3_reduce/bn"
  top: "inception_4a/double3x3_reduce/bn"
  name: "inception_4a/relu_double3x3_reduce"
  type: "ReLU"
}
layer {
  bottom: "inception_4a/double3x3_reduce/bn"
  top: "inception_4a/double3x3a"
  name: "inception_4a/double3x3a"
  type: "Convolution"
  param {
    lr_mult: 1
    decay_mult: 1
  }
  convolution_param {
    #num_output: 48
    num_output: 128
    pad: 1
    kernel_size: 3
    weight_filler {
      type: "xavier"
    }
    bias_term: false
  }
}
## BN_DATA
layer {
  bottom: "inception_4a/double3x3a"
  name: "inception_4a/double3x3a/bn_new"
  top: "inception_4a/double3x3a/bn"
  type: "BatchNorm"
  param {
    lr_mult: 0
    decay_mult: 0
  }
  param {
    lr_mult: 0
    decay_mult: 0
  }
  batch_norm_param {
    
    moving_average_fraction: 0.99
    eps: 0.001
  }
}
layer {
  name: "inception_4a/double3x3a/bn_scale"
  type: "Scale"
  bottom: "inception_4a/double3x3a/bn"
  top: "inception_4a/double3x3a/bn"
  param {
    lr_mult: 1.0
    decay_mult: 0.0
  }
  param {
    lr_mult: 1.0
    decay_mult: 0.0
  }
  scale_param {
    filler {
      type: "constant"
      value: 1.0
    }
    bias_term: true
    bias_filler {
      type: "constant"
      value: 0.0
    }
  }
}
layer {
  bottom: "inception_4a/double3x3a/bn"
  top: "inception_4a/double3x3a/bn"
  name: "inception_4a/relu_double3x3a"
  type: "ReLU"
}
layer {
  bottom: "inception_4a/double3x3a/bn"
  top: "inception_4a/double3x3b"
  name: "inception_4a/double3x3b"
  type: "Convolution"
  param {
    lr_mult: 1
    decay_mult: 1
  }
  convolution_param {
    num_output: 128
    pad: 1
    kernel_size: 3
    weight_filler {
      type: "xavier"
    }
    bias_term: false
  }
}
## BN_DATA
layer {
  bottom: "inception_4a/double3x3b"
  name: "inception_4a/double3x3b/bn_new"
  top: "inception_4a/double3x3b/bn"
  type: "BatchNorm"
  param {
    lr_mult: 0
    decay_mult: 0
  }
  param {
    lr_mult: 0
    decay_mult: 0
  }
  batch_norm_param {
    
    moving_average_fraction: 0.99
    eps: 0.001
  }
}
layer {
  name: "inception_4a/double3x3b/bn_scale"
  type: "Scale"
  bottom: "inception_4a/double3x3b/bn"
  top: "inception_4a/double3x3b/bn"
  param {
    lr_mult: 1.0
    decay_mult: 0.0
  }
  param {
    lr_mult: 1.0
    decay_mult: 0.0
  }
  scale_param {
    filler {
      type: "constant"
      value: 1.0
    }
    bias_term: true
    bias_filler {
      type: "constant"
      value: 0.0
    }
  }
}
layer {
  bottom: "inception_4a/double3x3b/bn"
  top: "inception_4a/double3x3b/bn"
  name: "inception_4a/relu_double3x3b"
  type: "ReLU"
}
layer {
  bottom: "inception_3c/output"
  top: "inception_4a/pool"
  name: "inception_4a/pool"
  type: "Pooling"
  pooling_param {
    #pool: MAX
    pool: AVE
    kernel_size: 3
    stride: 1
    pad: 1
  }
}
layer {
  bottom: "inception_4a/pool"
  top: "inception_4a/pool_proj"
  name: "inception_4a/pool_proj"
  type: "Convolution"
  param {
    lr_mult: 1
    decay_mult: 1
  }
  convolution_param {
    #num_output: 64
    num_output: 128
    kernel_size: 1
    weight_filler {
      type: "xavier"
    }
    bias_term: false
  }
}
## BN_DATA
layer {
  bottom: "inception_4a/pool_proj"
  name: "inception_4a/pool_proj/bn_new"
  top: "inception_4a/pool_proj/bn"
  type: "BatchNorm"
  param {
    lr_mult: 0
    decay_mult: 0
  }
  param {
    lr_mult: 0
    decay_mult: 0
  }
  batch_norm_param {
    
    moving_average_fraction: 0.99
    eps: 0.001
  }
}
layer {
  name: "inception_4a/pool_proj/bn_scale"
  type: "Scale"
  bottom: "inception_4a/pool_proj/bn"
  top: "inception_4a/pool_proj/bn"
  param {
    lr_mult: 1.0
    decay_mult: 0.0
  }
  param {
    lr_mult: 1.0
    decay_mult: 0.0
  }
  scale_param {
    filler {
      type: "constant"
      value: 1.0
    }
    bias_term: true
    bias_filler {
      type: "constant"
      value: 0.0
    }
  }
}
layer {
  bottom: "inception_4a/pool_proj/bn"
  top: "inception_4a/pool_proj/bn"
  name: "inception_4a/relu_pool_proj"
  type: "ReLU"
}
layer {
  bottom: "inception_4a/1x1/bn"
  bottom: "inception_4a/3x3/bn"
  bottom: "inception_4a/double3x3b/bn"
  bottom: "inception_4a/pool_proj/bn"
  top: "inception_4a/output"
  name: "inception_4a/output"
  type: "Concat"
}
layer {
  bottom: "inception_4a/output"
  top: "inception_4b/1x1"
  name: "inception_4b/1x1"
  type: "Convolution"
  param {
    lr_mult: 1
    decay_mult: 1
  }
  convolution_param {
    #num_output: 160
    num_output: 192
    kernel_size: 1
    weight_filler {
      type: "xavier"
    }
    bias_term: false
  }
}
## BN_DATA
layer {
  bottom: "inception_4b/1x1"
  name: "inception_4b/1x1/bn_new"
  top: "inception_4b/1x1/bn"
  type: "BatchNorm"
  param {
    lr_mult: 0
    decay_mult: 0
  }
  param {
    lr_mult: 0
    decay_mult: 0
  }
  batch_norm_param {
    
    moving_average_fraction: 0.99
    eps: 0.001
  }
}
layer {
  name: "inception_4b/1x1/bn_scale"
  type: "Scale"
  bottom: "inception_4b/1x1/bn"
  top: "inception_4b/1x1/bn"
  param {
    lr_mult: 1.0
    decay_mult: 0.0
  }
  param {
    lr_mult: 1.0
    decay_mult: 0.0
  }
  scale_param {
    filler {
      type: "constant"
      value: 1.0
    }
    bias_term: true
    bias_filler {
      type: "constant"
      value: 0.0
    }
  }
}
layer {
  bottom: "inception_4b/1x1/bn"
  top: "inception_4b/1x1/bn"
  name: "inception_4b/relu_1x1"
  type: "ReLU"
}
layer {
  bottom: "inception_4a/output"
  top: "inception_4b/3x3_reduce"
  name: "inception_4b/3x3_reduce"
  type: "Convolution"
  param {
    lr_mult: 1
    decay_mult: 1
  }
  convolution_param {
    #num_output: 112
    num_output: 96
    kernel_size: 1
    weight_filler {
      type: "xavier"
    }
    bias_term: false
  }
}
## BN_DATA
layer {
  bottom: "inception_4b/3x3_reduce"
  name: "inception_4b/3x3_reduce/bn_new"
  top: "inception_4b/3x3_reduce/bn"
  type: "BatchNorm"
  param {
    lr_mult: 0
    decay_mult: 0
  }
  param {
    lr_mult: 0
    decay_mult: 0
  }
  batch_norm_param {
    
    moving_average_fraction: 0.99
    eps: 0.001
  }
}
layer {
  name: "inception_4b/3x3_reduce/bn_scale"
  type: "Scale"
  bottom: "inception_4b/3x3_reduce/bn"
  top: "inception_4b/3x3_reduce/bn"
  param {
    lr_mult: 1.0
    decay_mult: 0.0
  }
  param {
    lr_mult: 1.0
    decay_mult: 0.0
  }
  scale_param {
    filler {
      type: "constant"
      value: 1.0
    }
    bias_term: true
    bias_filler {
      type: "constant"
      value: 0.0
    }
  }
}
layer {
  bottom: "inception_4b/3x3_reduce/bn"
  top: "inception_4b/3x3_reduce/bn"
  name: "inception_4b/relu_3x3_reduce"
  type: "ReLU"
}
layer {
  bottom: "inception_4b/3x3_reduce/bn"
  top: "inception_4b/3x3"
  name: "inception_4b/3x3"
  type: "Convolution"
  param {
    lr_mult: 1
    decay_mult: 1
  }
  convolution_param {
    #num_output: 224
    num_output: 128
    pad: 1
    kernel_size: 3
    weight_filler {
      type: "xavier"
    }
    bias_term: false
  }
}
## BN_DATA
layer {
  bottom: "inception_4b/3x3"
  name: "inception_4b/3x3/bn_new"
  top: "inception_4b/3x3/bn"
  type: "BatchNorm"
  param {
    lr_mult: 0
    decay_mult: 0
  }
  param {
    lr_mult: 0
    decay_mult: 0
  }
  batch_norm_param {
    
    moving_average_fraction: 0.99
    eps: 0.001
  }
}
layer {
  name: "inception_4b/3x3/bn_scale"
  type: "Scale"
  bottom: "inception_4b/3x3/bn"
  top: "inception_4b/3x3/bn"
  param {
    lr_mult: 1.0
    decay_mult: 0.0
  }
  param {
    lr_mult: 1.0
    decay_mult: 0.0
  }
  scale_param {
    filler {
      type: "constant"
      value: 1.0
    }
    bias_term: true
    bias_filler {
      type: "constant"
      value: 0.0
    }
  }
}
layer {
  bottom: "inception_4b/3x3/bn"
  top: "inception_4b/3x3/bn"
  name: "inception_4b/relu_3x3"
  type: "ReLU"
}
layer {
  bottom: "inception_4a/output"
  top: "inception_4b/double3x3_reduce"
  name: "inception_4b/double3x3_reduce"
  type: "Convolution"
  param {
    lr_mult: 1
    decay_mult: 1
  }
  convolution_param {
    #num_output: 24
    num_output: 96
    kernel_size: 1
    weight_filler {
      type: "xavier"
    }
    bias_term: false
  }
}
## BN_DATA
layer {
  bottom: "inception_4b/double3x3_reduce"
  name: "inception_4b/double3x3_reduce/bn_new"
  top: "inception_4b/double3x3_reduce/bn"
  type: "BatchNorm"
  param {
    lr_mult: 0
    decay_mult: 0
  }
  param {
    lr_mult: 0
    decay_mult: 0
  }
  batch_norm_param {
    
    moving_average_fraction: 0.99
    eps: 0.001
  }
}
layer {
  name: "inception_4b/double3x3_reduce/bn_scale"
  type: "Scale"
  bottom: "inception_4b/double3x3_reduce/bn"
  top: "inception_4b/double3x3_reduce/bn"
  param {
    lr_mult: 1.0
    decay_mult: 0.0
  }
  param {
    lr_mult: 1.0
    decay_mult: 0.0
  }
  scale_param {
    filler {
      type: "constant"
      value: 1.0
    }
    bias_term: true
    bias_filler {
      type: "constant"
      value: 0.0
    }
  }
}
layer {
  bottom: "inception_4b/double3x3_reduce/bn"
  top: "inception_4b/double3x3_reduce/bn"
  name: "inception_4b/relu_double3x3_reduce"
  type: "ReLU"
}
layer {
  bottom: "inception_4b/double3x3_reduce/bn"
  top: "inception_4b/double3x3a"
  name: "inception_4b/double3x3a"
  type: "Convolution"
  param {
    lr_mult: 1
    decay_mult: 1
  }
  convolution_param {
    #num_output: 64
    num_output: 128
    pad: 1
    kernel_size: 3
    weight_filler {
      type: "xavier"
    }
    bias_term: false
  }
}
## BN_DATA
layer {
  bottom: "inception_4b/double3x3a"
  name: "inception_4b/double3x3a/bn_new"
  top: "inception_4b/double3x3a/bn"
  type: "BatchNorm"
  param {
    lr_mult: 0
    decay_mult: 0
  }
  param {
    lr_mult: 0
    decay_mult: 0
  }
  batch_norm_param {
    
    moving_average_fraction: 0.99
    eps: 0.001
  }
}
layer {
  name: "inception_4b/double3x3a/bn_scale"
  type: "Scale"
  bottom: "inception_4b/double3x3a/bn"
  top: "inception_4b/double3x3a/bn"
  param {
    lr_mult: 1.0
    decay_mult: 0.0
  }
  param {
    lr_mult: 1.0
    decay_mult: 0.0
  }
  scale_param {
    filler {
      type: "constant"
      value: 1.0
    }
    bias_term: true
    bias_filler {
      type: "constant"
      value: 0.0
    }
  }
}

layer {
  bottom: "inception_4b/double3x3a/bn"
  top: "inception_4b/double3x3a/bn"
  name: "inception_4b/relu_double3x3a"
  type: "ReLU"
}
layer {
  bottom: "inception_4b/double3x3a/bn"
  top: "inception_4b/double3x3b"
  name: "inception_4b/double3x3b"
  type: "Convolution"
  param {
    lr_mult: 1
    decay_mult: 1
  }
  convolution_param {
    num_output: 128
    pad: 1
    kernel_size: 3
    weight_filler {
      type: "xavier"
    }
    bias_term: false
  }
}
## BN_DATA
layer {
  bottom: "inception_4b/double3x3b"
  name: "inception_4b/double3x3b/bn_new"
  top: "inception_4b/double3x3b/bn"
  type: "BatchNorm"
  param {
    lr_mult: 0
    decay_mult: 0
  }
  param {
    lr_mult: 0
    decay_mult: 0
  }
  batch_norm_param {
    
    moving_average_fraction: 0.99
    eps: 0.001
  }
}
layer {
  name: "inception_4b/double3x3b/bn_scale"
  type: "Scale"
  bottom: "inception_4b/double3x3b/bn"
  top: "inception_4b/double3x3b/bn"
  param {
    lr_mult: 1.0
    decay_mult: 0.0
  }
  param {
    lr_mult: 1.0
    decay_mult: 0.0
  }
  scale_param {
    filler {
      type: "constant"
      value: 1.0
    }
    bias_term: true
    bias_filler {
      type: "constant"
      value: 0.0
    }
  }
}
layer {
  bottom: "inception_4b/double3x3b/bn"
  top: "inception_4b/double3x3b/bn"
  name: "inception_4b/relu_double3x3b"
  type: "ReLU"
}
layer {
  bottom: "inception_4a/output"
  top: "inception_4b/pool"
  name: "inception_4b/pool"
  type: "Pooling"
  pooling_param {
    #pool: MAX
    pool: AVE
    kernel_size: 3
    stride: 1
    pad: 1
  }
}
layer {
  bottom: "inception_4b/pool"
  top: "inception_4b/pool_proj"
  name: "inception_4b/pool_proj"
  type: "Convolution"
  param {
    lr_mult: 1
    decay_mult: 1
  }
  convolution_param {
    num_output: 128
    kernel_size: 1
    weight_filler {
      type: "xavier"
    }
    bias_term: false
  }
}
## BN_DATA
layer {
  bottom: "inception_4b/pool_proj"
  name: "inception_4b/pool_proj/bn_new"
  top: "inception_4b/pool_proj/bn"
  type: "BatchNorm"
  param {
    lr_mult: 0
    decay_mult: 0
  }
  param {
    lr_mult: 0
    decay_mult: 0
  }
  batch_norm_param {
    
    moving_average_fraction: 0.99
    eps: 0.001
  }
}
layer {
  name: "inception_4b/pool_proj/bn_scale"
  type: "Scale"
  bottom: "inception_4b/pool_proj/bn"
  top: "inception_4b/pool_proj/bn"
  param {
    lr_mult: 1.0
    decay_mult: 0.0
  }
  param {
    lr_mult: 1.0
    decay_mult: 0.0
  }
  scale_param {
    filler {
      type: "constant"
      value: 1.0
    }
    bias_term: true
    bias_filler {
      type: "constant"
      value: 0.0
    }
  }
}
layer {
  bottom: "inception_4b/pool_proj/bn"
  top: "inception_4b/pool_proj/bn"
  name: "inception_4b/relu_pool_proj"
  type: "ReLU"
}
layer {
  bottom: "inception_4b/1x1/bn"
  bottom: "inception_4b/3x3/bn"
  bottom: "inception_4b/double3x3b/bn"
  bottom: "inception_4b/pool_proj/bn"
  top: "inception_4b/output"
  name: "inception_4b/output"
  type: "Concat"
}
layer {
  bottom: "inception_4b/output"
  top: "inception_4c/1x1"
  name: "inception_4c/1x1"
  type: "Convolution"
  param {
    lr_mult: 1
    decay_mult: 1
  }
  convolution_param {
    #num_output: 128
    num_output: 160
    kernel_size: 1
    weight_filler {
      type: "xavier"
    }
    bias_term: false
  }
}
## BN_DATA
layer {
  bottom: "inception_4c/1x1"
  name: "inception_4c/1x1/bn_new"
  top: "inception_4c/1x1/bn"
  type: "BatchNorm"
  param {
    lr_mult: 0
    decay_mult: 0
  }
  param {
    lr_mult: 0
    decay_mult: 0
  }
  batch_norm_param {
    
    moving_average_fraction: 0.99
    eps: 0.001
  }
}
layer {
  name: "inception_4c/1x1/bn_scale"
  type: "Scale"
  bottom: "inception_4c/1x1/bn"
  top: "inception_4c/1x1/bn"
  param {
    lr_mult: 1.0
    decay_mult: 0.0
  }
  param {
    lr_mult: 1.0
    decay_mult: 0.0
  }
  scale_param {
    filler {
      type: "constant"
      value: 1.0
    }
    bias_term: true
    bias_filler {
      type: "constant"
      value: 0.0
    }
  }
}
layer {
  bottom: "inception_4c/1x1/bn"
  top: "inception_4c/1x1/bn"
  name: "inception_4c/relu_1x1"
  type: "ReLU"
}
layer {
  bottom: "inception_4b/output"
  top: "inception_4c/3x3_reduce"
  name: "inception_4c/3x3_reduce"
  type: "Convolution"
  param {
    lr_mult: 1
    decay_mult: 1
  }
  convolution_param {
    num_output: 128
    kernel_size: 1
    weight_filler {
      type: "xavier"
    }
    bias_term: false
  }
}
## BN_DATA
layer {
  bottom: "inception_4c/3x3_reduce"
  name: "inception_4c/3x3_reduce/bn_new"
  top: "inception_4c/3x3_reduce/bn"
  type: "BatchNorm"
  param {
    lr_mult: 0
    decay_mult: 0
  }
  param {
    lr_mult: 0
    decay_mult: 0
  }
  batch_norm_param {
    
    moving_average_fraction: 0.99
    eps: 0.001
  }
}
layer {
  name: "inception_4c/3x3_reduce/bn_scale"
  type: "Scale"
  bottom: "inception_4c/3x3_reduce/bn"
  top: "inception_4c/3x3_reduce/bn"
  param {
    lr_mult: 1.0
    decay_mult: 0.0
  }
  param {
    lr_mult: 1.0
    decay_mult: 0.0
  }
  scale_param {
    filler {
      type: "constant"
      value: 1.0
    }
    bias_term: true
    bias_filler {
      type: "constant"
      value: 0.0
    }
  }
}
layer {
  bottom: "inception_4c/3x3_reduce/bn"
  top: "inception_4c/3x3_reduce/bn"
  name: "inception_4c/relu_3x3_reduce"
  type: "ReLU"
}
layer {
  bottom: "inception_4c/3x3_reduce/bn"
  top: "inception_4c/3x3"
  name: "inception_4c/3x3"
  type: "Convolution"
  param {
    lr_mult: 1
    decay_mult: 1
  }
  convolution_param {
    num_output: 160
    pad: 1
    kernel_size: 3
    weight_filler {
      type: "xavier"
    }
    bias_term: false
  }
}
## BN_DATA
layer {
  bottom: "inception_4c/3x3"
  name: "inception_4c/3x3/bn_new"
  top: "inception_4c/3x3/bn"
  type: "BatchNorm"
  param {
    lr_mult: 0
    decay_mult: 0
  }
  param {
    lr_mult: 0
    decay_mult: 0
  }
  batch_norm_param {
    
    moving_average_fraction: 0.99
    eps: 0.001
  }
}
layer {
  name: "inception_4c/3x3/bn_scale"
  type: "Scale"
  bottom: "inception_4c/3x3/bn"
  top: "inception_4c/3x3/bn"
  param {
    lr_mult: 1.0
    decay_mult: 0.0
  }
  param {
    lr_mult: 1.0
    decay_mult: 0.0
  }
  scale_param {
    filler {
      type: "constant"
      value: 1.0
    }
    bias_term: true
    bias_filler {
      type: "constant"
      value: 0.0
    }
  }
}
layer {
  bottom: "inception_4c/3x3/bn"
  top: "inception_4c/3x3/bn"
  name: "inception_4c/relu_3x3"
  type: "ReLU"
}
layer {
  bottom: "inception_4b/output"
  top: "inception_4c/double3x3_reduce"
  name: "inception_4c/double3x3_reduce"
  type: "Convolution"
  param {
    lr_mult: 1
    decay_mult: 1
  }
  convolution_param {
    #num_output: 24
    num_output: 128
    kernel_size: 1
    weight_filler {
      type: "xavier"
    }
    bias_term: false
  }
}
## BN_DATA
layer {
  bottom: "inception_4c/double3x3_reduce"
  name: "inception_4c/double3x3_reduce/bn_new"
  top: "inception_4c/double3x3_reduce/bn"
  type: "BatchNorm"
  param {
    lr_mult: 0
    decay_mult: 0
  }
  param {
    lr_mult: 0
    decay_mult: 0
  }
  batch_norm_param {
    
    moving_average_fraction: 0.99
    eps: 0.001
  }
}
layer {
  name: "inception_4c/double3x3_reduce/bn_scale"
  type: "Scale"
  bottom: "inception_4c/double3x3_reduce/bn"
  top: "inception_4c/double3x3_reduce/bn"
  param {
    lr_mult: 1.0
    decay_mult: 0.0
  }
  param {
    lr_mult: 1.0
    decay_mult: 0.0
  }
  scale_param {
    filler {
      type: "constant"
      value: 1.0
    }
    bias_term: true
    bias_filler {
      type: "constant"
      value: 0.0
    }
  }
}
layer {
  bottom: "inception_4c/double3x3_reduce/bn"
  top: "inception_4c/double3x3_reduce/bn"
  name: "inception_4c/relu_double3x3_reduce"
  type: "ReLU"
}
layer {
  bottom: "inception_4c/double3x3_reduce/bn"
  top: "inception_4c/double3x3a"
  name: "inception_4c/double3x3a"
  type: "Convolution"
  param {
    lr_mult: 1
    decay_mult: 1
  }
  convolution_param {
    #num_output: 64
    num_output: 160
    pad: 1
    kernel_size: 3
    weight_filler {
      type: "xavier"
    }
    bias_term: false
  }
}
## BN_DATA
layer {
  bottom: "inception_4c/double3x3a"
  name: "inception_4c/double3x3a/bn_new"
  top: "inception_4c/double3x3a/bn"
  type: "BatchNorm"
  param {
    lr_mult: 0
    decay_mult: 0
  }
  param {
    lr_mult: 0
    decay_mult: 0
  }
  batch_norm_param {
    
    moving_average_fraction: 0.99
    eps: 0.001
  }
}
layer {
  name: "inception_4c/double3x3a/bn_scale"
  type: "Scale"
  bottom: "inception_4c/double3x3a/bn"
  top: "inception_4c/double3x3a/bn"
  param {
    lr_mult: 1.0
    decay_mult: 0.0
  }
  param {
    lr_mult: 1.0
    decay_mult: 0.0
  }
  scale_param {
    filler {
      type: "constant"
      value: 1.0
    }
    bias_term: true
    bias_filler {
      type: "constant"
      value: 0.0
    }
  }
}
layer {
  bottom: "inception_4c/double3x3a/bn"
  top: "inception_4c/double3x3a/bn"
  name: "inception_4c/relu_double3x3a"
  type: "ReLU"
}
layer {
  bottom: "inception_4c/double3x3a/bn"
  top: "inception_4c/double3x3b"
  name: "inception_4c/double3x3b"
  type: "Convolution"
  param {
    lr_mult: 1
    decay_mult: 1
  }
  convolution_param {
    num_output: 160
    pad: 1
    kernel_size: 3
    weight_filler {
      type: "xavier"
    }
    bias_term: false
  }
}
## BN_DATA
layer {
  bottom: "inception_4c/double3x3b"
  name: "inception_4c/double3x3b/bn_new"
  top: "inception_4c/double3x3b/bn"
  type: "BatchNorm"
  param {
    lr_mult: 0
    decay_mult: 0
  }
  param {
    lr_mult: 0
    decay_mult: 0
  }
  batch_norm_param {
    
    moving_average_fraction: 0.99
    eps: 0.001
  }
}
layer {
  name: "inception_4c/double3x3b/bn_scale"
  type: "Scale"
  bottom: "inception_4c/double3x3b/bn"
  top: "inception_4c/double3x3b/bn"
  param {
    lr_mult: 1.0
    decay_mult: 0.0
  }
  param {
    lr_mult: 1.0
    decay_mult: 0.0
  }
  scale_param {
    filler {
      type: "constant"
      value: 1.0
    }
    bias_term: true
    bias_filler {
      type: "constant"
      value: 0.0
    }
  }
}
layer {
  bottom: "inception_4c/double3x3b/bn"
  top: "inception_4c/double3x3b/bn"
  name: "inception_4c/relu_double3x3b"
  type: "ReLU"
}
layer {
  bottom: "inception_4b/output"
  top: "inception_4c/pool"
  name: "inception_4c/pool"
  type: "Pooling"
  pooling_param {
    #pool: MAX
    pool: AVE
    kernel_size: 3
    stride: 1
    pad: 1
  }
}
layer {
  bottom: "inception_4c/pool"
  top: "inception_4c/pool_proj"
  name: "inception_4c/pool_proj"
  type: "Convolution"
  param {
    lr_mult: 1
    decay_mult: 1
  }
  convolution_param {
    #num_output: 64
    num_output: 128
    kernel_size: 1
    weight_filler {
      type: "xavier"
    }
    bias_term: false
  }
}
## BN_DATA
layer {
  bottom: "inception_4c/pool_proj"
  name: "inception_4c/pool_proj/bn_new"
  top: "inception_4c/pool_proj/bn"
  type: "BatchNorm"
  param {
    lr_mult: 0
    decay_mult: 0
  }
  param {
    lr_mult: 0
    decay_mult: 0
  }
  batch_norm_param {
    
    moving_average_fraction: 0.99
    eps: 0.001
  }
}
layer {
  name: "inception_4c/pool_proj/bn_scale"
  type: "Scale"
  bottom: "inception_4c/pool_proj/bn"
  top: "inception_4c/pool_proj/bn"
  param {
    lr_mult: 1.0
    decay_mult: 0.0
  }
  param {
    lr_mult: 1.0
    decay_mult: 0.0
  }
  scale_param {
    filler {
      type: "constant"
      value: 1.0
    }
    bias_term: true
    bias_filler {
      type: "constant"
      value: 0.0
    }
  }
}
layer {
  bottom: "inception_4c/pool_proj/bn"
  top: "inception_4c/pool_proj/bn"
  name: "inception_4c/relu_pool_proj"
  type: "ReLU"
}
layer {
  bottom: "inception_4c/1x1/bn"
  bottom: "inception_4c/3x3/bn"
  bottom: "inception_4c/double3x3b/bn"
  bottom: "inception_4c/pool_proj/bn"
  top: "inception_4c/output"
  name: "inception_4c/output"
  type: "Concat"
}
layer {
  bottom: "inception_4c/output"
  top: "inception_4d/1x1"
  name: "inception_4d/1x1"
  type: "Convolution"
  param {
    lr_mult: 1
    decay_mult: 1
  }
  convolution_param {
    num_output: 96
    kernel_size: 1
    weight_filler {
      type: "xavier"
    }
    bias_term: false
  }
}
## BN_DATA
layer {
  bottom: "inception_4d/1x1"
  name: "inception_4d/1x1/bn_new"
  top: "inception_4d/1x1/bn"
  type: "BatchNorm"
  param {
    lr_mult: 0
    decay_mult: 0
  }
  param {
    lr_mult: 0
    decay_mult: 0
  }
  batch_norm_param {
    
    moving_average_fraction: 0.99
    eps: 0.001
  }
}
layer {
  name: "inception_4d/1x1/bn_scale"
  type: "Scale"
  bottom: "inception_4d/1x1/bn"
  top: "inception_4d/1x1/bn"
  param {
    lr_mult: 1.0
    decay_mult: 0.0
  }
  param {
    lr_mult: 1.0
    decay_mult: 0.0
  }
  scale_param {
    filler {
      type: "constant"
      value: 1.0
    }
    bias_term: true
    bias_filler {
      type: "constant"
      value: 0.0
    }
  }
}
layer {
  bottom: "inception_4d/1x1/bn"
  top: "inception_4d/1x1/bn"
  name: "inception_4d/relu_1x1"
  type: "ReLU"
}
layer {
  bottom: "inception_4c/output"
  top: "inception_4d/3x3_reduce"
  name: "inception_4d/3x3_reduce"
  type: "Convolution"
  param {
    lr_mult: 1
    decay_mult: 1
  }
  convolution_param {
    #num_output: 144
    num_output: 128
    kernel_size: 1
    weight_filler {
      type: "xavier"
    }
    bias_term: false
  }
}
## BN_DATA
layer {
  bottom: "inception_4d/3x3_reduce"
  name: "inception_4d/3x3_reduce/bn_new"
  top: "inception_4d/3x3_reduce/bn"
  type: "BatchNorm"
  param {
    lr_mult: 0
    decay_mult: 0
  }
  param {
    lr_mult: 0
    decay_mult: 0
  }
  batch_norm_param {
    
    moving_average_fraction: 0.99
    eps: 0.001
  }
}
layer {
  name: "inception_4d/3x3_reduce/bn_scale"
  type: "Scale"
  bottom: "inception_4d/3x3_reduce/bn"
  top: "inception_4d/3x3_reduce/bn"
  param {
    lr_mult: 1.0
    decay_mult: 0.0
  }
  param {
    lr_mult: 1.0
    decay_mult: 0.0
  }
  scale_param {
    filler {
      type: "constant"
      value: 1.0
    }
    bias_term: true
    bias_filler {
      type: "constant"
      value: 0.0
    }
  }
}
layer {
  bottom: "inception_4d/3x3_reduce/bn"
  top: "inception_4d/3x3_reduce/bn"
  name: "inception_4d/relu_3x3_reduce"
  type: "ReLU"
}
layer {
  bottom: "inception_4d/3x3_reduce/bn"
  top: "inception_4d/3x3"
  name: "inception_4d/3x3"
  type: "Convolution"
  param {
    lr_mult: 1
    decay_mult: 1
  }
  convolution_param {
    #num_output: 288
    num_output: 192
    pad: 1
    kernel_size: 3
    weight_filler {
      type: "xavier"
    }
    bias_term: false
  }
}
## BN_DATA
layer {
  bottom: "inception_4d/3x3"
  name: "inception_4d/3x3/bn_new"
  top: "inception_4d/3x3/bn"
  type: "BatchNorm"
  param {
    lr_mult: 0
    decay_mult: 0
  }
  param {
    lr_mult: 0
    decay_mult: 0
  }
  batch_norm_param {
    
    moving_average_fraction: 0.99
    eps: 0.001
  }
}
layer {
  name: "inception_4d/3x3/bn_scale"
  type: "Scale"
  bottom: "inception_4d/3x3/bn"
  top: "inception_4d/3x3/bn"
  param {
    lr_mult: 1.0
    decay_mult: 0.0
  }
  param {
    lr_mult: 1.0
    decay_mult: 0.0
  }
  scale_param {
    filler {
      type: "constant"
      value: 1.0
    }
    bias_term: true
    bias_filler {
      type: "constant"
      value: 0.0
    }
  }
}
layer {
  bottom: "inception_4d/3x3/bn"
  top: "inception_4d/3x3/bn"
  name: "inception_4d/relu_3x3"
  type: "ReLU"
}
layer {
  bottom: "inception_4c/output"
  top: "inception_4d/double3x3_reduce"
  name: "inception_4d/double3x3_reduce"
  type: "Convolution"
  param {
    lr_mult: 1
    decay_mult: 1
  }
  convolution_param {
    #num_output: 32
    num_output: 160
    kernel_size: 1
    weight_filler {
      type: "xavier"
    }
    bias_term: false
  }
}
## BN_DATA
layer {
  bottom: "inception_4d/double3x3_reduce"
  name: "inception_4d/double3x3_reduce/bn_new"
  top: "inception_4d/double3x3_reduce/bn"
  type: "BatchNorm"
  param {
    lr_mult: 0
    decay_mult: 0
  }
  param {
    lr_mult: 0
    decay_mult: 0
  }
  batch_norm_param {
    
    moving_average_fraction: 0.99
    eps: 0.001
  }
}
layer {
  name: "inception_4d/double3x3_reduce/bn_scale"
  type: "Scale"
  bottom: "inception_4d/double3x3_reduce/bn"
  top: "inception_4d/double3x3_reduce/bn"
  param {
    lr_mult: 1.0
    decay_mult: 0.0
  }
  param {
    lr_mult: 1.0
    decay_mult: 0.0
  }
  scale_param {
    filler {
      type: "constant"
      value: 1.0
    }
    bias_term: true
    bias_filler {
      type: "constant"
      value: 0.0
    }
  }
}
layer {
  bottom: "inception_4d/double3x3_reduce/bn"
  top: "inception_4d/double3x3_reduce/bn"
  name: "inception_4d/relu_double3x3_reduce"
  type: "ReLU"
}
layer {
  bottom: "inception_4d/double3x3_reduce/bn"
  top: "inception_4d/double3x3a"
  name: "inception_4d/double3x3a"
  type: "Convolution"
  param {
    lr_mult: 1
    decay_mult: 1
  }
  convolution_param {
    #num_output: 64
    num_output: 192
    pad: 1
    kernel_size: 3
    weight_filler {
      type: "xavier"
    }
    bias_term: false
  }
}
## BN_DATA
layer {
  bottom: "inception_4d/double3x3a"
  name: "inception_4d/double3x3a/bn_new"
  top: "inception_4d/double3x3a/bn"
  type: "BatchNorm"
  param {
    lr_mult: 0
    decay_mult: 0
  }
  param {
    lr_mult: 0
    decay_mult: 0
  }
  batch_norm_param {
    
    moving_average_fraction: 0.99
    eps: 0.001
  }
}
layer {
  name: "inception_4d/double3x3a/bn_scale"
  type: "Scale"
  bottom: "inception_4d/double3x3a/bn"
  top: "inception_4d/double3x3a/bn"
  param {
    lr_mult: 1.0
    decay_mult: 0.0
  }
  param {
    lr_mult: 1.0
    decay_mult: 0.0
  }
  scale_param {
    filler {
      type: "constant"
      value: 1.0
    }
    bias_term: true
    bias_filler {
      type: "constant"
      value: 0.0
    }
  }
}
layer {
  bottom: "inception_4d/double3x3a/bn"
  top: "inception_4d/double3x3a/bn"
  name: "inception_4d/relu_double3x3a"
  type: "ReLU"
}
layer {
  bottom: "inception_4d/double3x3a/bn"
  top: "inception_4d/double3x3b"
  name: "inception_4d/double3x3b"
  type: "Convolution"
  param {
    lr_mult: 1
    decay_mult: 1
  }
  convolution_param {
    num_output: 192
    pad: 1
    kernel_size: 3
    weight_filler {
      type: "xavier"
    }
    bias_term: false
  }
}
## BN_DATA
layer {
  bottom: "inception_4d/double3x3b"
  name: "inception_4d/double3x3b/bn_new"
  top: "inception_4d/double3x3b/bn"
  type: "BatchNorm"
  param {
    lr_mult: 0
    decay_mult: 0
  }
  param {
    lr_mult: 0
    decay_mult: 0
  }
  batch_norm_param {
    
    moving_average_fraction: 0.99
    eps: 0.001
  }
}
layer {
  name: "inception_4d/double3x3b/bn_scale"
  type: "Scale"
  bottom: "inception_4d/double3x3b/bn"
  top: "inception_4d/double3x3b/bn"
  param {
    lr_mult: 1.0
    decay_mult: 0.0
  }
  param {
    lr_mult: 1.0
    decay_mult: 0.0
  }
  scale_param {
    filler {
      type: "constant"
      value: 1.0
    }
    bias_term: true
    bias_filler {
      type: "constant"
      value: 0.0
    }
  }
}
layer {
  bottom: "inception_4d/double3x3b/bn"
  top: "inception_4d/double3x3b/bn"
  name: "inception_4d/relu_double3x3b"
  type: "ReLU"
}
layer {
  bottom: "inception_4c/output"
  top: "inception_4d/pool"
  name: "inception_4d/pool"
  type: "Pooling"
  pooling_param {
    #pool: MAX
    pool: AVE
    kernel_size: 3
    stride: 1
    pad: 1
  }
}
layer {
  bottom: "inception_4d/pool"
  top: "inception_4d/pool_proj"
  name: "inception_4d/pool_proj"
  type: "Convolution"
  param {
    lr_mult: 1
    decay_mult: 1
  }
  convolution_param {
    #num_output: 64
    num_output: 128
    kernel_size: 1
    weight_filler {
      type: "xavier"
    }
    bias_term: false
  }
}
## BN_DATA
layer {
  bottom: "inception_4d/pool_proj"
  name: "inception_4d/pool_proj/bn_new"
  top: "inception_4d/pool_proj/bn"
  type: "BatchNorm"
  param {
    lr_mult: 0
    decay_mult: 0
  }
  param {
    lr_mult: 0
    decay_mult: 0
  }
  batch_norm_param {
    
    moving_average_fraction: 0.99
    eps: 0.001
  }
}
layer {
  name: "inception_4d/pool_proj/bn_scale"
  type: "Scale"
  bottom: "inception_4d/pool_proj/bn"
  top: "inception_4d/pool_proj/bn"
  param {
    lr_mult: 1.0
    decay_mult: 0.0
  }
  param {
    lr_mult: 1.0
    decay_mult: 0.0
  }
  scale_param {
    filler {
      type: "constant"
      value: 1.0
    }
    bias_term: true
    bias_filler {
      type: "constant"
      value: 0.0
    }
  }
}
layer {
  bottom: "inception_4d/pool_proj/bn"
  top: "inception_4d/pool_proj/bn"
  name: "inception_4d/relu_pool_proj"
  type: "ReLU"
}
layer {
  bottom: "inception_4d/1x1/bn"
  bottom: "inception_4d/3x3/bn"
  bottom: "inception_4d/double3x3b/bn"
  bottom: "inception_4d/pool_proj/bn"
  top: "inception_4d/output"
  name: "inception_4d/output"
  type: "Concat"
}

#========= RPN ============

layer {
  name: "rpn_conv/3x3"
  type: "Convolution"
  bottom: "inception_4d/output"
  top: "rpn/output"
  convolution_param {
    num_output: 512
    kernel_size: 3 pad: 1 stride: 1
  }
}
layer {
  name: "rpn_relu/3x3"
  type: "ReLU"
  bottom: "rpn/output"
  top: "rpn/output"
}

layer {
  name: "rpn_cls_score"
  type: "Convolution"
  bottom: "rpn/output"
  top: "rpn_cls_score"
  convolution_param {
    num_output: 18   # 2(bg/fg) * 9(anchors)
    kernel_size: 1 pad: 0 stride: 1
  }
}
layer {
  name: "rpn_bbox_pred"
  type: "Convolution"
  bottom: "rpn/output"
  top: "rpn_bbox_pred"
  convolution_param {
    num_output: 36   # 4 * 9(anchors)
    kernel_size: 1 pad: 0 stride: 1
  }
}
layer {
   bottom: "rpn_cls_score"
   top: "rpn_cls_score_reshape"
   name: "rpn_cls_score_reshape"
   type: "Reshape"
   reshape_param { shape { dim: 0 dim: 2 dim: -1 dim: 0 } }
}

#========= RoI Proposal ============

layer {
  name: "rpn_cls_prob"
  type: "Softmax"
  bottom: "rpn_cls_score_reshape"
  top: "rpn_cls_prob"
}
layer {
  name: 'rpn_cls_prob_reshape'
  type: 'Reshape'
  bottom: 'rpn_cls_prob'
  top: 'rpn_cls_prob_reshape'
  reshape_param { shape { dim: 0 dim: 18 dim: -1 dim: 0 } }
}
layer {
  name: 'proposal'
  type: 'Python'
  bottom: 'rpn_cls_prob_reshape'
  bottom: 'rpn_bbox_pred'
  bottom: 'im_info'
  top: 'rois'
  python_param {
    module: 'rpn.proposal_layer'
    layer: 'ProposalLayer'
    param_str: "'feat_stride': 16"
  }
}

#========= RCNN ============

layer {
  name: "roi_pool_inception_4d/output"
  type: "ROIPooling"
  top: "roi_pool_inception_4d/output"
  bottom: "inception_4d/output"
  bottom: "rois"
  roi_pooling_param {
    pooled_w: 4
    pooled_h: 4
    spatial_scale: 0.0625 #1/16
  }
}

layer {
  bottom: "roi_pool_inception_4d/output"
  top: "loss2/conv"
  name: "loss2/conv"
  type: "Convolution"
  param {
    lr_mult: 1
    decay_mult: 1
  }
  convolution_param {
    num_output: 128
    kernel_size: 1
    weight_filler {
      type: "xavier"
    }
    bias_term: false
  }
}
## BN_DATA
layer {
  bottom: "loss2/conv"
  name: "loss2/conv/bn_new"
  top: "loss2/conv/bn"
  type: "BatchNorm"
  param {
    lr_mult: 0
    decay_mult: 0
  }
  param {
    lr_mult: 0
    decay_mult: 0
  }
  batch_norm_param {
    
    moving_average_fraction: 0.99
    eps: 0.001
  }
}
layer {
  name: "loss2/conv/bn_scale"
  type: "Scale"
  bottom: "loss2/conv/bn"
  top: "loss2/conv/bn"
  param {
    lr_mult: 1.0
    decay_mult: 0.0
  }
  param {
    lr_mult: 1.0
    decay_mult: 0.0
  }
  scale_param {
    filler {
      type: "constant"
      value: 1.0
    }
    bias_term: true
    bias_filler {
      type: "constant"
      value: 0.0
    }
  }
}
layer {
  bottom: "loss2/conv/bn"
  top: "loss2/conv/bn"
  name: "loss2/relu_conv"
  type: "ReLU"
}
# layer {
#   name: "Gather4"
#   type: "Gather"
#   bottom: "loss2/conv/bn"
#  top: "loss2/conv/bn_gather"
#}
layer {
  bottom: "loss2/conv/bn"
  top: "loss2/fc"
  name: "loss2/fc"
  type: "InnerProduct"
  param {
    lr_mult: 1
    decay_mult: 1
  }
  inner_product_param {
    num_output: 1024
    weight_filler {
      type: "xavier"
    }
    bias_term: false
  }
}
####
layer {
  name: "loss2/fc/reshape"
  type: "Reshape"
  bottom: "loss2/fc"
  top: "loss2/fc/reshape"
  reshape_param{
    shape{ dim: [-1,1024,1,1]}
  }
}
####
## BN_DATA
layer {
  bottom: "loss2/fc/reshape"
  name: "loss2/fc/bn_new"
  top: "loss2/fc/bn"
  type: "BatchNorm"
  param {
    lr_mult: 0
    decay_mult: 0
  }
  param {
    lr_mult: 0
    decay_mult: 0
  }
  batch_norm_param {
    
    moving_average_fraction: 0.99
    eps: 0.001
  }
}
layer {
  name: "loss2/fc/bn_scale"
  type: "Scale"
  bottom: "loss2/fc/bn"
  top: "loss2/fc/bn"
  param {
    lr_mult: 1.0
    decay_mult: 0.0
  }
  param {
    lr_mult: 1.0
    decay_mult: 0.0
  }
  scale_param {
    filler {
      type: "constant"
      value: 1.0
    }
    bias_term: true
    bias_filler {
      type: "constant"
      value: 0.0
    }
  }
}
layer {
  bottom: "loss2/fc/bn"
  top: "loss2/fc/bn"
  name: "loss2/relu_fc"
  type: "ReLU"
}
layer {
  bottom: "loss2/fc/bn"
  top: "cls_score"
  name: "cls_score"
  type: "InnerProduct"
  param {
    lr_mult: 1
    decay_mult: 1
  }
  param {
    lr_mult: 2
    decay_mult: 0
  }
  inner_product_param {
    num_output: 5 
    weight_filler {
      type: "xavier"
    }
    bias_filler {
      type: "constant"
    }
  }
}
layer {
  bottom: "loss2/fc/bn"
  top: "bbox_pred"
  name: "bbox_pred"
  type: "InnerProduct"
  param {
    lr_mult: 1
    decay_mult: 1
  }
  param {
    lr_mult: 2
    decay_mult: 0
  }
  inner_product_param {
    num_output: 20 
    weight_filler {
      type: "xavier"
    }
    bias_filler {
      type: "constant"
    }
  }
}
layer {
  name: "cls_prob"
  type: "Softmax"
  bottom: "cls_score"
  top: "cls_prob"
}

